Assets/ML-Agents/Examples/Crawler/TFModels/Crawler1.onnx (onnx, 159865 bytes, 7 tensors)

action_model._continuous_distribution.log_sigma f4 [1, 20]
-0.6264176 -0.37994316 -0.37131765 -0.4415323 -0.463477 -0.46053421 -0.3375942 -0.49192783
-0.28525472 -0.32276508 -0.48825565 -0.5485791 -0.5460525 -0.20352668 -0.68919873 -0.487612
-0.39096212 -0.37000006 -0.48395574 -0.3561611
00000000: e75c 20bf e987 c2be 591d bebe 8610 e2be
00000010: db4c edbe 24cb ebbe 26d9 acbe f7dd fbbe
00000020: e80c 92be 7741 a5be a5fc f9be ae6f 0cbf
00000030: 19ca 0bbf 4c69 50be 546f 30bf 48a8 f9be
00000040: 302c c8be a670 bdbe 0cc9 f7be bf5a b6be

action_model._continuous_distribution.mu.bias f4 [20]
0.04030298 0.050733157 0.08899502 -0.00013448202 -0.00855459 -0.02173915 0.0834164 0.02113816
0.07428566 0.14022893 -0.07818049 0.06921096 -0.045696266 0.03570455 0.057473432 0.055984065
0.07125551 -0.030454274 0.040366296 -0.066437155
00000000: bd14 253d 92cd 4f3d 0543 b63d be03 0db9
00000010: 8d28 0cbc 4d16 b2bc 38d6 aa3d ef29 ad3c
00000020: 1523 983d 2c98 0f3e 181d a0bd 7abe 8d3d
00000030: 022c 3bbd ef3e 123d 4369 6b3d 8c4f 653d
00000040: 69ee 913d 3e7b f9bc 2157 253d 3410 88bd

action_model._continuous_distribution.mu.weight f4 [20, 128]
0.09736208 0.0035717455 -0.06766318 0.0021728664 0.03825575 -0.02711443 0.055130135 -0.07541564
0.040811997 0.11403534 0.028700057 0.0021895636 0.030960148 -0.07065601 0.03027342 -0.0020415867
0.013324286 -0.0689313 0.100270875 -0.0002008983 -0.041880764 0.02386147 -7.29805e-05 -0.0010650044
-0.035220698 -0.012316689 0.10792044 -0.07360377 -0.030502982 0.08265328 -0.047114033 0.053220507
-0.03003311 0.06249135 0.05307695 0.19133164 -0.0969291 0.050775263 0.09773686 0.15063925
0.05101001 -0.013294536 -0.07648451 -0.024803884 -0.008771434 0.058384698 0.011515048 -0.00483519
-0.025181293 -0.055590253 -0.05493023 0.065349065 -0.020087752 0.1330389 0.040748358 0.09388249
-0.05994402 -0.057412077 0.12007638 0.08757888 -0.052509613 0.0027409666 0.095775075 -0.07501501
0.04851136 0.032774076 0.0056783035 0.111902 -0.1791463 0.106625326 0.02907905 -0.029589666
-0.079724915 0.03911587 0.02664448 -0.00290711 0.02650597 -0.019152505 -0.021332836 -0.008146756
-0.038401403 -0.012633325 0.046526898 0.05362526 0.010569478 -0.06268679 -0.04621678 -0.0020152442
0.0041366066 -0.046491135 0.028298885 -0.027098205 0.04400545 0.081231184 0.012157145 -0.001043743
0.014126197 0.03415815 -0.029187134 -0.013621494 0.088898875 -0.023191156 -0.0047080154 0.1295059
-0.029458076 -0.013462065 0.0041286442 0.040622942 0.014509801 -0.01120826 0.019566663 0.12770078
0.011082231 0.033503246 0.05848784 -0.014355332 0.15217069 -0.005217619 -0.0032799642 -0.0069986437
0.05384075 -0.052879885 -0.043411355 0.043411084 -0.011640163 -0.016166357 -0.033303116 0.015600543
-0.118960716 -0.05774034 -0.07727435 0.14156128 -0.15087558 0.039647866 0.009178918 -0.030874686
0.02700781 0.14821689 0.024784245 0.053834207 -0.038775604 0.10041783 -0.061775956 0.08511952
-0.07662112 -0.068099454 -0.031682473 -0.20835419 0.09440314 -0.15469408 -0.020649755 -0.033014134
-0.0035407993 0.1385254 0.029014591 0.007959824 0.021447716 -0.05425242 0.076069206 0.028020684
-0.005288442 -0.09776848 0.0058559584 0.04267442 -0.034277152 -0.048238896 0.015159564 -0.027460702
0.07682107 -0.0012402855 -0.012905 -0.07630784 -0.04524776 0.0028457118 -0.045018032 0.03772216
-0.023507684 0.010092946 -0.06894789 -0.0073776 -0.008516384 -0.042626634 0.08535215 0.02072516
0.067928515 -0.015579595 0.01668317 0.089069724 0.03433797 -0.040830985 -0.026466278 -0.12697247
-0.05675113 -0.034067784 0.06698566 0.019164957 -0.035600193 0.038557842 0.009303631 0.063722976
-0.06528443 0.05071239 -0.0041271136 0.03137187 -0.14726931 -0.038152866 -0.0031376665 0.011916861
-0.13041228 0.006208364 -0.11307715 -0.010754856 0.119119786 -0.00021247096 0.011563615 -0.043900043
-0.013984193 -0.053723924 -0.04349878 -0.027150553 -0.015751272 0.053961873 -0.11964293 -0.07191699
0.06291736 0.050184987 0.02350543 -0.15343156 0.031255763 -0.061703715 -0.13342068 -0.073211044
0.12042691 0.054935865 0.16155112 -0.06218773 -0.123950385 -0.006573143 0.0059162606 0.016554924
-0.07032707 -0.059618425 -0.026676068 -0.006263191 0.05940448 0.0765281 0.13594367 0.028032035
-0.10328209 -0.030931052 -0.03701031 0.023975091 -0.103658065 0.07906711 -0.036908105 -0.042054582
00000000: c565 c73d f213 6a3b fe92 8abd a666 0e3b
00000010: 10b2 1c3d 151f debc 23d0 613d 8473 9abd
00000020: 7b2a 273d 5c8b e93d 621c eb3c c87e 0f3b
00000030: 23a0 fd3c 19b4 90bd f7ff f73c 24cc 05bb
00000040: 1b4e 5a3c da2b 8dbd d15a cd3d 3aa8 52b9
00000050: 2a8b 2bbd 2179 c33c 1c0d 99b8 9e97 8bba
00000060: 9443 10bd f0cb 49bc 6405 dd3d 93bd 96bd
00000070: 64e1 f9bc 1f46 a93d a5fa 40bd bffd 593d
00000080: ff07 f6bc eef6 7f3d 3767 593d 71ec 433e
00000090: c482 c6bd b9f9 4f3d 432a c83d 2d41 1a3e
000000a0: dfef 503d 53d1 59bc e9a3 9cbd 8431 cbbc
000000b0: 10b6 0fbc cb24 6f3d 9da9 3c3c 8370 9ebb
000000c0: 0049 cebc 9bb2 63bd 85fe 60bd bbd5 853d
000000d0: 128f a4bc 593b 083e c0e7 263d 7745 c03d
000000e0: dc87 75bd ed28 6bbd 9bea f53d 8e5c b33d
000000f0: 5214 57bd caa1 333b b925 c43d 78a1 99bd
00000100: d9b3 463d 1c3e 063d 1011 ba3b e02c e53d
00000110: 2172 37be 615e da3d 3037 ee3c 0766 f2bc
00000120: d146 a3bd f637 203d 8645 da3c 3685 3ebb
00000130: 0c23 d93c b7e5 9cbc 33c2 aebc f979 05bc
00000140: ca4a 1dbd 01fc 4ebc fd92 3e3d 29a6 5b3d
00000150: 9b2b 2d3c ef61 80bd ce4d 3dbd 3012 04bb
00000160: 5f8c 873b 7d6d 3ebd 10d3 e73c 0efd ddbc
00000170: 0f3f 343d 895c a63d c32e 473c 34ce 88ba
00000180: 9171 673c 6be9 0b3d db19 efbc b02c 5fbc
00000190: 9d10 b63d 61fb bdbc b245 9abb 329d 043e
000001a0: 1052 f1bc fe8f 5cbc 9449 873b 3e64 263d
000001b0: 84ba 6d3c daa2 37bc 444a a03c fec3 023e
000001c0: 3f92 353c b33a 093d f290 6f3d a032 6bbc
000001d0: a2d2 1b3e 8ff8 aabb abf4 56bb e154 e5bb
000001e0: 1e88 5c3d 9498 58bd 1bd0 31bd d2cf 313d
000001f0: 62b6 3ebc 4f6f 84bc d968 08bd 6b99 7f3c
00000200: ada1 f3bd 2281 6cbd 0442 9ebd 71f5 103e
00000210: 217f 1abe cd65 223d 2c63 163c e9ec fcbc
00000220: 7c3f dd3c 2bc6 173e 5408 cb3c 4281 5c3d
00000230: 2bd3 1ebd dda7 cd3d c908 7dbd 2553 ae3d
00000240: 89eb 9cbd ba77 8bbd 7bc5 01bd cd5a 55be
00000250: 6f56 c13d 2068 1ebe ad29 a9bc d439 07bd
00000260: c10c 68bb 9ad9 0d3e 02b0 ed3c ec69 023c
00000270: 1fb3 af3c c937 5ebd 2cca 9b3d a28b e53c
00000280: ab4a adbb d73a c8bd 57e3 bf3b 5fcb 2e3d
00000290: 3366 0cbd 2696 45bd d25f 783c 44f5 e0bc
000002a0: 5d54 9d3d 1391 a2ba 7e6f 53bc 4947 9cbd
000002b0: b755 39bd 1f7f 3a3b d464 38bd 8d82 1a3d
000002c0: 3093 c0bc e25c 253c 8d34 8dbd cbbf f1bb
000002d0: 4e88 0bbc 4499 2ebd 1ccd ae3d d0c7 a93c
000002e0: 1b1e 8b3d 8f41 7fbc 25ab 883c 306a b63d
000002f0: f9a5 0c3d 643e 27bd cfcf d8bc 1205 02be
00000300: df73 68bd a98a 0bbd c72f 893d d4ff 9c3c
00000310: 82d1 11bd d4ee 1d3d 426e 183c 3181 823d
00000320: d8b3 85bd ccb7 4f3d bd3c 87bb ca7f 003d
00000330: c4cd 16be 2e46 1cbd 4fa1 4dbb f03e 433c
00000340: cc8a 05be 886f cb3b fe94 e7bd 2335 30bc
00000350: 13f5 f33d bdca 5eb9 5175 3d3c 88d0 33bd
00000360: f51d 65bc 9e0d 5cbd c72b 32bd d66a debc
00000370: d008 81bc 2007 5d3d 5a07 f5bd 3749 93bd
00000380: d1da 803d c68e 4d3d 768e c03c 2a1d 1dbe
00000390: 0b06 003d 09bd 7cbd 6e9f 08be acef 95bd
000003a0: 62a2 f63d 6e04 613d a86d 253e 90b8 7ebd
000003b0: b3d9 fdbd 8563 d7bb 31dd c13b 319e 873c
000003c0: a407 90bd 7332 74bd c587 dabc 743b cdbb
000003d0: 1d52 733d c4ba 9c3d d134 0b3e 70a3 e53c
000003e0: 8f85 d3bd 1e63 fdbc 1f98 17bd 6967 c43c
000003f0: ae4a d4bd f0ed a13d f42c 17bd 6d41 2cbd

network_body._body_endoder.seq_layers.0.bias f4 [128]
-0.050075147 -0.019484457 0.002223905 0.0489814 -0.04297006 0.02384272 0.009097406 0.041402724
-0.014877604 -0.0039870273 -0.0875374 -0.1084153 0.024091939 -0.037837546 -0.0326754 0.02787703
0.017521167 -0.005846204 -0.021433651 0.042038262 -0.008042564 -0.041369863 -0.055729646 -0.005980444
-0.05580541 0.008801594 -0.05287154 -0.03656429 -0.05698611 -0.0074307644 0.01993409 -0.038666427
-0.009502832 0.015937647 -0.03342405 -0.021981092 -0.026566342 -0.066384435 -0.037747152 -0.05007962
0.0019871595 -0.0026121791 -0.032478258 0.020367812 -0.022044297 -0.010228361 -0.027163083 -0.06996813
0.04653501 0.007108872 -0.041831303 -0.006145752 -0.045358952 0.023161659 0.0045369426 0.019501833
0.063697495 -0.0041065696 -0.028763514 -0.055721737 -0.022086693 0.06293223 0.05220325 0.021349402
-0.0052560475 -0.0077080606 0.04164249 -0.025080409 0.00878718 -0.01186506 -0.0209058 -0.04584711
0.061979845 -0.06952861 0.0155027695 -0.022439841 0.0066077863 0.03132413 -0.026451256 -0.056579404
-0.0120490175 -0.02752868 -0.10655576 0.00054899225 0.0048868237 -0.06920413 -0.01794093 -0.008750576
0.0173104 -0.03570749 -0.04186149 0.01293801 -0.025941722 -0.0030662515 -0.046699986 0.024591163
0.034184486 0.010691987 0.035749044 -0.056110587 -0.03480596 0.016388057 -0.016450362 -0.02457862
0.0057250815 -0.017349912 0.0014625642 -0.07225401 0.025378095 -0.050918505 -0.0472945 -0.04174698
-0.051125437 -0.121906385 0.03695503 -0.0030022005 0.05106562 -0.024812981 -0.02813941 0.024586428
-0.101794735 -0.004194858 -0.029508183 0.0639681 0.018864172 0.022551892 -0.07268733 -0.044895455
00000000: 991b 4dbd de9d 9fbc efbe 113b b8a0 483d
00000010: 6001 30bd cf51 c33c 490d 153c e795 293d
00000020: 32c1 73bc 9ca5 82bb cf46 b3bd d708 debd
00000030: 755c c53c 8bfb 1abd a4d6 05bd 5f5e e43c
00000040: 8d88 8f3c 8391 bfbb a095 afbc 5030 2c3d
00000050: f5c4 03bc 7273 29bd c544 64bd 9af7 c3bb
00000060: 3794 64bd 9034 103c d48f 58bd 70c4 15bd
00000070: 446a 69bd c57d f3bb d14c a33c b060 1ebd
00000080: c4b1 1bbc ab8f 823c a8e7 08bd b111 b4bc
00000090: a8a1 d9bc 90f4 87bd c29c 1abd 4a20 4dbd
000000a0: 013b 023b 1831 2bbb ec07 05bd 66da a63c
000000b0: 3e96 b4bc db94 27bc 1d85 debc 734b 8fbd
000000c0: 7f9b 3e3d 8af1 e83b 4d57 2bbd 4e62 c9bb
000000d0: 4fca 39bd 85bd bd3c a2aa 943b 4fc2 9f3c
000000e0: d573 823d 6790 86bb 76a1 ebbc 7a3c 64bd
000000f0: 27ef b4bc 9de2 803d 13d3 553d f1e4 ae3c
00000100: ec3a acbb e693 fcbb 5191 2a3d 6e75 cdbc
00000110: 1bf8 0f3c ab65 42bc a442 abbc 2eca 3bbd
00000120: 94de 7d3d 0465 8ebd 54ff 7d3c c2d3 b7bc
00000130: 2186 d83b bb4d 003d 4eb0 d8bc cebf 67bd
00000140: 3e69 45bc d483 e1bc e839 dabd 3fea 0f3a
00000150: a621 a03b e5ba 8dbd dbf8 92bc 935e 0fbc
00000160: 8ace 8d3c 0442 12bd f476 2bbd f2f9 533c
00000170: bc83 d4bc 2af3 48bb 7c48 3fbd 6873 c93c
00000180: 0805 0c3d 722d 2f3c 976d 123d 37d4 65bd
00000190: b290 0ebd 3f40 863c e9c2 86bc 1a59 c9bc
000001a0: 7799 bb3b 6721 8ebc 83b3 bf3a e9f9 93bd
000001b0: b9e5 cf3c ec8f 50bd e1b7 41bd e2fe 2abd
000001c0: e868 51bd 0eaa f9bd 285e 173d 91c0 44bb
000001d0: 2f2a 513d 9844 cbbc 9f84 e6bc 7a69 c93c
000001e0: c279 d0bd 0575 89bb 25bb f1bc b501 833d
000001f0: 0989 9a3c bfbe b83c 18dd 94bd 4ce4 37bd

network_body._body_endoder.seq_layers.0.weight f4 [128, 158]
-0.027796073 0.1386764 0.16069561 -0.09882709 0.027530462 -0.122254774 -0.10463936 -0.11481582
-0.11352728 0.20035179 -0.09737748 -0.05638096 0.053192288 0.14500907 -0.025343116 0.09800688
0.018904628 0.086678796 0.06174192 0.16914648 0.020045027 0.24440461 -0.080338396 0.17047654
0.07946126 -0.022627527 0.053902257 -0.08869624 0.0136126 0.057662092 0.16305998 0.20605688
0.04152726 0.0316693 0.09026106 0.16459358 -0.072459176 -0.026871314 0.116125844 0.0010789902
-0.040924553 -0.103850156 0.14359592 0.15142304 -0.015736498 -0.079230405 0.057234164 -0.0126903085
-0.08748962 -0.084737025 0.17064644 -0.08512686 0.010147682 -0.047880586 0.017662762 0.11992246
-0.052205354 0.2107108 -0.0025623154 0.09471254 -0.10206185 0.048136927 0.00964751 -0.071926825
-0.09934748 -0.05529706 -0.20461012 -0.23259416 -0.27251264 -0.08682937 -0.051624373 -0.20787124
-0.15200879 -0.053158436 -0.07014105 0.1766318 0.06300907 0.18741758 0.009119391 -0.026738578
-0.30085635 0.04782403 -0.035935506 -0.06481485 -0.09839194 -0.07327057 0.028293325 0.011902633
-0.019155094 0.113319285 0.11162322 0.035223257 0.030708635 -0.0002148631 0.011573385 0.006056862
0.09745597 -0.07319849 0.2522657 -0.085385084 0.04072344 -0.10989508 0.12712233 -0.051251467
-0.1374747 -0.24239868 0.10587812 -0.21559401 -0.19441669 -0.034379676 0.0020416845 -0.011485377
-0.11940368 -0.09241208 -0.048209123 -0.07373089 0.07778597 0.071588896 -0.08071061 0.035952173
-0.008183 -0.020262847 -0.038108762 -0.0956345 0.06484651 -0.0434957 0.050112456 -0.14884897
-0.08776747 -0.12997551 0.028531311 0.10064616 -0.006452952 -0.3310531 -0.007232206 0.14198096
-0.07552652 0.101060025 -0.07338183 0.06139417 -0.06427666 -0.03558194 -0.106126495 -0.06497517
-0.35422423 -0.021017978 0.008859062 -0.07627119 0.043254763 -0.098503225 0.12786755 0.18505235
0.064567365 -0.061079197 -0.003336664 -0.0066677746 -0.07907769 -0.06895617 -0.083897926 0.06752116
0.026029365 0.119597144 -0.14985947 0.05042593 0.028488185 0.068135306 0.11589134 0.11262941
-0.041416224 -0.061876673 0.10423899 -0.08799337 0.16202404 -0.012694287 0.01904655 -0.13645394
-0.055556137 -0.06081342 0.009616434 0.057901453 -0.059156545 -0.11191932 0.03544814 -0.16725138
-0.028305938 0.083309546 -0.03360277 0.023440488 -0.053129766 0.036216103 -0.0117922295 -0.016826585
-0.18353161 -0.17729844 -0.063284956 -0.104637496 0.09386562 0.06004556 -0.027524715 0.022431137
-0.17098092 0.018954217 0.0854882 0.06978694 -0.110039406 0.15174915 0.042548403 -0.068195306
-0.008339699 0.0617719 -0.1480525 -0.027589746 -0.0016274793 -0.034139007 0.0062704226 0.028076934
0.21133 0.16172166 0.060531355 0.052348953 0.03494826 0.086120814 0.06638632 0.07947373
-0.072434835 0.23032819 0.14259854 -0.081843905 0.008233472 0.25907773 -0.074432656 -0.009009695
0.028737752 -0.22165833 -0.058242623 0.14449297 -0.20060582 -0.14874643 0.121106036 0.024993325
-0.32448456 0.0030351833 -0.053132612 0.07886202 -0.047267485 -0.08527898 -0.113533445 -0.16757755
0.18203112 0.0983994 -0.13596795 0.030029442 -0.04878039 0.0072787204 0.15054403 0.039843503
00000000: 97b4 e3bc 3001 0e3e 648d 243e db65 cabd
00000010: 9087 e13c b660 fabd 294d d6bd 8e24 ebbd
00000020: fe80 e8bd 0529 4d3e d86d c7bd b9ef 66bd
00000030: 28e0 593d 427d 143e 5e9c cfbc d5b7 c83d
00000040: e1dd 9a3c a784 b13d 18e5 7c3d bc34 2d3e
00000050: 7835 a43c 3445 7a3e 7588 a4bd 6791 2e3e
00000060: 96bc a23d 5d5d b9bc 9dc8 5c3d 60a6 b5bd
00000070: 6207 5f3c 162f 6c3d 32f9 263e 9300 533e
00000080: 7d18 2a3d abb7 013d cada b83d 388b 283e
00000090: 7a65 94bd 3b21 dcbc 63d3 ed3d e76c 8d3a
000000a0: 81a0 27bd 64af d4bd cf0a 133e a40e 1b3e
000000b0: d4e9 80bc 8d43 a2bd 5f6e 6a3d 03eb 4fbc
000000c0: c22d b3bd 9b8a adbd f1bd 2e3e fe56 aebd
000000d0: 7742 263c 6f1e 44bd 7fb1 903c e899 f53d
000000e0: 48d5 55bd 92c4 573e 85ec 27bb a6f8 c13d
000000f0: ce05 d1bd 3a2b 453d 9710 1e3c 5f4e 93bd
00000100: b176 cbbd 2c7f 62bd 5185 51be 2a2d 6ebe
00000110: c786 8bbe 99d3 b1bd 1474 53bd 33dc 54be
00000120: 31a8 1bbe a9bc 59bd 1ca6 8fbd f7de 343e
00000130: e60a 813d 65ea 3f3e 8069 153c dd0a dbbc
00000140: d809 9abe 21e3 433d 1c31 13bd a6bd 84bd
00000150: b781 c9bd e10e 96bd 67c7 e73c 4303 433c
00000160: 25eb 9cbc f113 e83d b79a e43d 4346 103d
00000170: ad90 fb3c e04c 61b9 4c9e 3d3c a478 c63b
00000180: ff96 c73d 17e9 95bd f828 813e 60de aebd
00000190: 9fcd 263d ac10 e1bd 5b2c 023e 0fed 51bd
000001a0: 2bc6 0cbe 5c37 78be a1d6 d83d adc4 5cbe
000001b0: 2b15 47be b4d1 0cbd c8cd 053b 2a2d 3cbc
000001c0: eb89 f4bd 8b42 bdbd ee76 45bd 3900 97bd
000001d0: 404e 9f3d 339d 923d 9b4b a5bd 9642 133d
000001e0: fd11 06bc 45fe a5bc ef17 1cbd 05dc c3bd
000001f0: 3fce 843d 8c28 32bd b842 4d3d dd6b 18be
00000200: 6ebf b3bd 4d18 05be 7fba e93c 931f ce3d
00000210: 4973 d3bb cb7f a9be 24fc ecbb 7563 113e
00000220: a6ad 9abd 8ff8 ce3d 3649 96bd 7478 7b3d
00000230: 7ba3 83bd 5ebe 11bd d958 d9bd b411 85bd
00000240: e15c b5be e52d acbc 9925 113c 1234 9cbd
00000250: e82b 313d 0fbc c9bd b6ef 023e 5d7e 3d3e
00000260: e53b 843d 2e2e 7abd efab 5abb 597d dabb
00000270: 7cf3 a1bd e438 8dbd add2 abbd 8948 8a3d
00000280: 893b d53c 59ef f43d c374 19be 6c8b 4e3d
00000290: 0e60 e93c 868a 8b3d 7058 ed3d 40aa e63d
000002a0: 0fa4 29bd 6572 7dbd 407b d53d de35 b4bd
000002b0: a1e9 253e b3fb 4fbc 8307 9c3c 95ba 0bbe
000002c0: d58e 63bd 7e17 79bd 3f8e 1d3c 132a 6d3d
000002d0: 224e 72bd f535 e5bd 1232 113d f243 2bbe
000002e0: dbe1 e7bc 329e aa3d 0fa3 09bd 4406 c03c
000002f0: 999e 59bd 5657 143d 3234 41bc e8d7 89bc
00000300: b6ef 3bbe b98d 35be 8b9b 81bd 2f4c d6bd
00000310: 9e3c c03d 55f2 753d 837b e1bc 81c1 b73c
00000320: 9f15 2fbe e045 9b3c 7014 af3d 75ec 8e3d
00000330: 575c e1bd 2164 1b3e 3c47 2e3d fba9 8bbd
00000340: 3ca3 08bc 8804 7d3d 139b 17be e403 e2bc
00000350: 2551 d5ba 58d5 0bbd 1e78 cd3b 9901 e63c
00000360: e466 583e 5d9a 253e baef 773d db6b 563d
00000370: e825 0f3d 1c60 b03d 8df5 873d 1fc3 a23d
00000380: b758 94bd 27db 6b3e 5a05 123e c79d a7bd
00000390: afe5 063c d6a5 843e 2670 98bd 669d 13bc
000003a0: 6f6b eb3c 67fa 62be d18f 6ebd f7f5 133e
000003b0: 9d6b 4dbe fc50 18be 7106 f83d cdbe cc3c
000003c0: d722 a6be ede9 463b 95a1 59bd 6982 a13d
000003d0: 8d9b 41bd bfa6 aebd 3984 e8bd 7399 2bbe
000003e0: 5e66 3a3e a085 c93d 2f3b 0bbe 4e00 f63c
000003f0: f2cd 47bd 5582 ee3b 3728 1a3e f132 233d

network_body._body_endoder.seq_layers.2.bias f4 [128]
0.053524237 -0.019330638 -0.013666259 -0.04133992 0.02176465 -0.09590757 0.043338865 -0.0016138353
-0.056966197 0.05255156 -0.075028166 -0.014354023 -0.14586404 0.0071428595 0.008596113 -0.007833714
-0.023009613 -0.09573909 -0.082896195 -0.01607503 -0.019736445 -0.0025391476 -0.0071285954 0.034643143
-0.008533183 -0.015565433 0.028905129 -0.025978595 -0.012303215 0.011765876 0.006719537 -0.031727176
-0.0516778 0.051180433 0.008055222 0.0058941976 -0.012870236 -0.033079933 0.0019713792 0.0029807722
-0.056652468 -0.037830006 0.00010973764 -0.05083786 -0.10575769 0.0152665125 -0.027857441 -0.013921082
-0.036269985 -0.0047368594 -0.055723496 -0.030763373 -0.06280228 0.02393535 -0.03541897 0.0071231946
-0.016140003 -0.06498919 -0.06288325 -0.018399423 -0.001550097 0.013640217 -0.018133702 0.0013047993
0.02018944 -0.037701752 -0.026325624 -0.025045136 -0.062232208 0.08811177 -0.045368277 -0.04839593
-0.0051679863 -0.026498046 -0.030823613 0.034205608 -0.024755893 -0.013660913 -0.025834246 -0.062664665
-0.04501602 -0.0044570453 -0.01123207 -0.03775862 -0.009947818 0.041428532 -0.0028349361 -0.07294942
-0.0029175852 -0.059295073 -0.0076138075 0.005567708 0.019452693 0.020916171 0.009242656 -0.12896642
0.027675172 -0.015180512 -0.04779219 0.0065882714 0.05657478 -0.018904887 -0.03289709 0.04763882
0.0100346645 -0.057903193 -0.009097949 0.02475114 -0.025162129 0.012232921 -0.00826964 -0.021844083
-0.013290094 -0.053562775 -0.0658913 0.002331088 -0.0119908275 -0.024219068 0.10130905 0.0043779537
-0.048214726 -0.0678035 -0.095931366 -0.05358695 -0.046450052 -0.055438504 0.0138551295 -0.14882395
00000000: 3b3c 5b3d 495b 9ebc 72e8 5fbc 0c54 29bd
00000010: c74b b23c 306b c4bd 1884 313d 5487 d3ba
00000020: 6355 69bd 4e40 573d 5ea8 99bd 232d 6bbc
00000030: 625d 15be a60e ea3b b6d6 0c3c fa58 00bc
00000040: a87e bcbc db12 c4bd 7bc5 a9bd c8af 83bc
00000050: 53ae a1bc d467 26bb fe96 e9bb f8e5 0d3d
00000060: c3ce 0bbc 2806 7fbc 73ca ec3c 10d1 d4bc
00000070: 6d93 49bc a9c5 403c 902f dc3b 5bf4 01bd
00000080: 1aac 53bd 93a2 513d 0dfa 033c 1d24 c13b
00000090: afdd 52bc d37e 07bd 4132 013b 0f59 433b
000000a0: 6b0c 68bd a3f3 1abd f222 e638 5c3b 50bd
000000b0: 7d97 d8bd 6520 7a3c 4a35 e4bc 4015 64bc
000000c0: d68f 14bd a837 9bbb 523e 64bd 7803 fcbc
000000d0: 7b9e 80bd 1114 c43c 7b13 11bd b069 e93b
000000e0: 0a38 84bc 0d19 85bd efc8 80bd 63ba 96bc
000000f0: a02c cbba 377b 5f3c 218d 94bc cd05 ab3a
00000100: 5364 a53c 276d 1abd d6a8 d7bc 752b cdbc
00000110: 33e7 7ebd f273 b43d 16d4 39bd d03a 46bd
00000120: 3658 a9bb 6e12 d9bc cd81 fcbc 2e1b 0c3d
00000130: dfcc cabc 06d2 5fbc 57a2 d3bc 5556 80bd
00000140: b862 38bd 680c 92bb b706 38bc c8a8 1abd
00000150: 2cfc 22bc f7b0 293d 56ca 39bb 8166 95bd
00000160: f534 3fbb 64df 72bd 3f7d f9bb 5271 b63b
00000170: 415b 9f3c 6458 ab3c 826e 173c c60f 04be
00000180: 0bb7 e23c afb7 78bc bec1 43bd 6de2 d73b
00000190: f5ba 673d 6cde 9abc 19bf 06bd ec20 433d
000001a0: 6f68 243c e62b 6dbd 900f 15bc e7c2 ca3c
000001b0: cf20 cebc 976c 483c 627d 07bc 5df2 b2bc
000001c0: b2be 59bc a464 5bbd 05f2 86bd 2bc5 183b
000001d0: 2d75 44bc 1167 c6bc 1f7b cf3d f074 8f3b
000001e0: ce7c 45bd 90dc 8abd aa77 c4bd fd7d 5bbd
000001f0: 6942 3ebd 7c13 63bd a000 633c 4e65 18be

network_body._body_endoder.seq_layers.2.weight f4 [128, 128]
-0.031460285 0.107163616 -0.17793097 0.33150023 0.118404366 0.08372408 -0.06633061 0.029537175
-0.019052226 0.07995187 -0.07610953 -0.083712436 -0.30643407 -0.039151274 -0.031683948 0.036634475
-0.1692964 -0.011218688 -0.017395247 -0.23268782 0.0805273 0.0643316 0.21872246 0.20141381
-0.16928981 0.090502486 -0.11493892 0.24616067 -0.016375288 -0.020235127 -0.056834143 -0.07519839
-0.13931009 0.025219051 -0.24232414 -0.28178486 -0.27022734 -0.08549902 -0.07140473 -0.04272097
0.1581055 -0.09364875 -0.0030108572 0.009902027 -0.0943821 -0.001700615 0.089243606 -0.13118023
0.12606375 -0.06871696 -0.1276174 0.12686877 -0.08281136 -0.081191555 -0.07871829 0.11837675
-0.09365527 -0.1167968 -0.042190135 -0.14625768 -0.007863636 0.21090004 -0.21963774 0.15606503
-0.11985042 -0.17669068 0.06312801 -0.15188123 -0.0067450088 0.09975596 0.097619854 -0.30463624
-0.14657228 0.018543797 0.10689725 -0.082543574 0.03262888 0.05173914 0.051000644 -0.12821318
-0.019597258 -0.040618174 0.041152306 -0.051819094 0.13938421 -0.018494837 0.07886884 -0.085773565
0.030037373 -0.07608138 -0.06784981 -0.06144935 -0.10350035 -0.23199943 -0.20088013 0.07022733
-0.12460438 -0.063650645 0.19928941 0.038929433 -0.09072959 0.03247425 -0.07623823 -0.034615245
-0.20566599 -0.036557253 0.06855043 -0.13894624 -0.04795943 -0.004446842 0.09889586 0.006310059
-0.00027534805 0.14692245 -0.1364677 0.0039522806 -0.42509836 -0.08517054 -0.12907112 0.12565236
0.041956563 -0.123334266 -0.034283757 -0.059101455 0.15011108 0.1252393 -0.2202683 0.0879
0.016272731 0.18276066 -0.17767785 -0.2519517 0.025033515 -0.120119855 -0.045129072 0.093122244
-0.11799416 -0.17891844 -0.01210331 -0.02069949 -0.15512216 0.06441517 -0.066971056 -0.1494965
-0.1161787 0.024213301 -0.120062046 -0.031107135 0.013935849 -0.09217625 -0.12816653 0.10388907
-0.14414914 -0.16104807 -0.07906183 -0.0886795 -0.13008836 -0.16514558 -0.11638786 -0.05380474
0.1205536 -0.04126023 -0.19538839 0.02556066 -0.0636581 0.03539694 0.01897851 -0.1784989
0.075842895 -0.083297566 -0.049435664 0.01773307 -0.12546773 0.015990067 -0.20474592 0.035349388
-0.15285061 -0.14906242 0.05469559 0.12075853 -0.007899984 0.051955324 -0.031303618 0.1388904
-0.16999155 -0.013375886 0.013859109 0.066209964 -0.04206564 -0.12959266 0.07718053 -0.14630808
0.15238956 0.08212968 0.047528893 0.06945764 0.087317415 0.03144423 -0.16657652 -0.028252682
0.24361129 -0.21436565 -0.009236405 -0.034522433 -0.07222462 -0.057756465 0.0905763 0.11361561
0.0834454 0.053342175 -0.10115338 0.047584686 -0.032305956 -0.12629248 0.022289187 -0.11547461
0.12011879 0.025220165 0.11134088 0.08137156 -0.09642677 -0.075641096 0.12804429 -0.08692244
-0.1364749 -0.22855319 0.006083086 -0.13286334 -0.1081524 -0.14091514 -0.07826791 -0.1012631
0.19779873 -0.16790916 0.11557397 -0.051476374 0.06789557 -0.09698323 0.090456106 -0.04340834
0.046531618 0.090051614 -0.31067997 -0.13000025 -0.1507107 -0.13725977 0.06792779 0.20268679
-0.058834348 0.08346227 -0.046035565 0.009707848 -0.09067104 -0.020809315 0.06081749 -0.16090664
00000000: 80dc 00bd 9978 db3d 8933 36be 66ba a93e
00000010: fd7d f23d 8877 ab3d 58d8 87bd f2f7 f13c
00000020: 6a13 9cbc cebd a33d 50df 9bbd 6d71 abbd
00000030: ede4 9cbe 165d 20bd 07c7 01bd 080e 163d
00000040: 095c 2dbe 97ce 37bc 7a80 8ebc b745 6ebe
00000050: 7feb a43d 49c0 833d c8f8 5f3e 6c3f 4e3e
00000060: 4f5a 2dbe 5e59 b93d 1965 ebbd 8b11 7c3e
00000070: 7825 86bc 23c4 a5bc ebca 68bd 9d01 9abd
00000080: 4ea7 0ebe 2f98 ce3c d223 78be 1b46 90be
00000090: 3d5b 8abe 1c1a afbd a53c 92bd 2ffc 2ebd
000000a0: 68e6 213e eaca bfbd cd51 45bb 1d3c 223c
000000b0: 674b c1bd 2ce7 deba 5ac5 b63d 1c54 06be
000000c0: db16 013e 7abb 8cbd 23ae 02be e3e9 013e
000000d0: 0199 a9bd c247 a6bd 0e37 a1bd 826f f23d
000000e0: 56ce bfbd 2933 efbd 90cf 2cbd 93c4 15be
000000f0: 7bd6 00bc 2ef6 573e b7e8 60be 83cf 1f3e
00000100: 2374 f5bd 67ee 34be 4249 813d c186 1bbe
00000110: 3c05 ddbb da4c cc3d ebec c73d 48f9 9bbe
00000120: 0b17 16be 29e9 973c f2ec da3d 9b0c a9bd
00000130: dca5 053d 6cec 533d 0de6 503d 514a 03be
00000140: 6e8a a0bc 3e5f 26bd 528f 283d 4240 54bd
00000150: bcba 0e3e 7c82 97bc fd85 a13d 0daa afbd
00000160: f010 f63c 8ed0 9bbd d7f4 8abd 50b2 7bbd
00000170: fef7 d3bd 4291 6dbe 85b3 4dbe 59d3 8f3d
00000180: 9530 ffbd 455b 82bd 8612 4c3e 7874 1f3d
00000190: 6fd0 b9bd b803 053d ca22 9cbd b7c8 0dbd
000001a0: 1b9a 52be 0fbd 15bd 2b64 8c3d ec47 0ebe
000001b0: 1b71 44bd d0b6 91bb ea89 ca3d 9dc4 ce3b
000001c0: 975c 90b9 d772 163e 30be 0bbe 2282 813b
000001d0: 7ea6 d9be e46d aebd 382b 04be 03ab 003e
000001e0: a5da 2b3d ad96 fcbd 206d 0cbd 5e14 72bd
000001f0: b8b6 193e bb3e 003e 038e 61be ea04 b43d
00000200: 644e 853c 9c25 3b3e 2ff1 35be d0ff 80be
00000210: 1613 cd3c 6601 f6bd 43d9 38bd e0b6 be3d
00000220: eca6 f1bd 6536 37be f64c 46bc fa91 a9bc
00000230: 58d8 1ebe 1aec 833d 1f28 89bd 9c15 19be
00000240: 19ef edbd f95a c63c 17e3 f5bd 64d4 febc
00000250: 3053 643c e7c6 bcbd 163e 03be cbc3 d43d
00000260: d59b 13be c9e9 24be 2beb a1bd 999d b5bd
00000270: e235 05be ec1b 29be c25c eebd 5c62 5cbd
00000280: cee4 f63d 7d00 29bd e513 48be 9764 d13c
00000290: 2e5f 82bd 62fc 103d d278 9b3c 6ac8 36be
000002a0: 8553 9b3d ea97 aabd 0d7d 4abd f144 913c
000002b0: 9d7a 00be 9afd 823c eaa8 51be 85ca 103d
000002c0: df84 1cbe d2a3 18be 7c08 603d 4050 f73d
000002d0: ef6e 01bc 1bcf 543d 3938 00bd 4939 0e3e
000002e0: 4412 2ebe 8826 5bbc 5111 633c 1799 873d
000002f0: 054d 2cbd f0b3 04be d310 9e3d c9d1 15be
00000300: 020c 1c3e 9b33 a83d a8ad 423d cf3f 8e3d
00000310: 79d3 b23d aacb 003d 0993 2abe 2b72 e7bc
00000320: 3d75 793e ab82 5bbe 4a54 17bc 6567 0dbd
00000330: 80ea 93bd 0b92 6cbd 1180 b93d 4daf e83d
00000340: 6ce5 aa3d 537d 5a3d 8129 cfbd 29e8 423d
00000350: 4053 04bd d152 01be d097 b63c f47d ecbd
00000360: d700 f63d 859a ce3c b006 e43d 22a6 a63d
00000370: 667b c5bd b8e9 9abd 0b1e 033e 6404 b2bd
00000380: 14c0 0bbe d909 6abe a054 c73b 540d 08be
00000390: 017f ddbd 0f4c 10be ed4a a0bd 0763 cfbd
000003a0: c08b 4a3e 61f0 2bbe 0cb2 ec3d e4d8 52bd
000003b0: d50c 8b3d 259f c6bd 0d41 b93d f2cc 31bd
000003c0: f097 3e3d fb6c b83d 7211 9fbe c91e 05be
000003d0: e853 1abe d38d 0cbe ba1d 8b3d 208d 4f3e
000003e0: 49fc 70bd 44ee aa3d ca8f 3cbd aa0d 1f3c
000003f0: bdb1 b9bd 4c78 aabc c31b 793d b6c4 24be
