Assets/ML-Agents/Examples/Crawler/TFModels/Crawler2.onnx (onnx, 159865 bytes, 7 tensors)

action_model._continuous_distribution.log_sigma f4 [1, 20]
00000000: da1b ae3b 6dca 603c 2adb e939 be07 113c
00000010: edd0 d43a 2ab5 5a3c d1d1 ab3c 91d6 423c
00000020: 0d30 77bc d2e0 33bc 84fb 863d e5a7 0b3d
00000030: e5d5 22bc 7c52 79bc c520 7bbb 47c2 843c
00000040: 6e83 073c f61f 5a3b e105 adbb 3f25 36bc
0.0053133788 0.013720137 0.00044604513 0.008851944 0.0016236581 0.013348857 0.020974072 0.011891977
-0.01508714 -0.010978894 0.065909415 0.034095664 -0.009938692 -0.01521742 -0.0038319093 0.01620592
0.008271081 0.003328321 -0.005280242 -0.011117279

action_model._continuous_distribution.mu.bias f4 [20]
00000000: e095 db3b e1cd feba e945 3f3c cfea 0dbb
00000010: 0889 dd3b 8d37 393c a143 db3b cd11 f8bb
00000020: 8daa 9b3c efc2 873c 0e6a b93b 8cdc 433c
00000030: 40c7 4d3b c955 77b8 cd87 87bb e54a 7abb
00000040: a0ec 963a d3be 8fb9 8403 c5bb 3643 a13b
0.006701216 -0.0019440019 0.011674383 -0.002165485 0.00676072 0.011304748 0.0066914116 -0.0075704814
0.019002223 0.016572444 0.0056583947 0.011954438 0.003139928 -5.8969283e-05 -0.0041360618 -0.0038191613
0.0011514612 -0.0002741726 -0.006012382 0.0049213422

action_model._continuous_distribution.mu.weight f4 [20, 128]
00000000: 9428 a13b 4b9b b83c 1571 d33b 7f3f 2f3d
00000010: ce4a b5bb 7f1d 273c 9dbc adbc a240 e0bb
00000020: 2e20 de3c bcc5 63bc 90a3 c5ba 124b d0bb
00000030: d5fc 82bc e3de 233d 8bfe 1f3b dca6 ebbb
00000040: 30fe 2a3c d4b3 c73c f013 a23b be51 8fbb
00000050: dfe3 edba 178b 523c 0dba 85bb 986c e0bb
00000060: 539e 7ebc 8303 febb e1e7 f4bb 768c 133a
00000070: 36df 1f3d 5287 f23c 5d84 d3bc 3922 d13c
00000080: 8784 e2bc 4a75 25bc 0175 db3c e562 6c3c
00000090: 4227 04bd 4da6 f33b 732f 993b d2dd 43bc
000000a0: d6ef 3bbd 644e 053c cab9 e4bc 3d83 bd3c
000000b0: a9e5 96bc cdff e4bc 8900 ec3c 05af 66bc
000000c0: 074e 9fbc a019 da3c 6135 e8ba 0d37 bcbb
000000d0: 8a0c c83c e49a 5f3c 724f 06bb 5a7a 4fbd
000000e0: faeb 8bbc d8f7 a6bc f40e d5bc 7225 62bc
000000f0: 7002 693c 0336 4dbc 40ae 18bc 77c4 febc
00000100: fc22 173b f968 cebb 9ee6 e2bb 1e8e 5c3c
00000110: 3f3b c13b c3e4 5fbc 4647 32ba 3efe 543c
00000120: c24d 673c e7e3 c2bc 8f0f a7bc 3a7c 01bd
00000130: 7633 f63c bb3a b53c 0222 dd38 343e a73d
00000140: 5c07 3f3c 40cc 023d df1b cfbb 591f a2bc
00000150: 05a2 053c 8389 6fbc 81d8 b0bc 5e29 09bd
00000160: c4eb e3bb d34b 4c3b 2a40 09bc ce08 8339
00000170: 74fb 17bc f5b1 e33b 2014 9a3c 9c01 85ba
00000180: b3ad e9bc 0ee9 633c 92b5 80bc 4284 10bc
00000190: 29b8 0cbc 83ab b5bc eda5 853c a0ea 11bc
000001a0: da69 10bd 95fe a83b fb1e 85bc 12ba 443c
000001b0: 8dfe 0d3b b27f 023b f180 15bd dc62 59bd
000001c0: 3f5d 6b3c 44f7 543c 1dc6 163c bf60 b9bb
000001d0: ff0c 483c eb83 83bc e446 4db9 1e6e 4abc
000001e0: 1bca 493d 13c7 783c ddad 4d3c a650 e03c
000001f0: 75df d23c 6893 3abb 0dd8 a83b 6fdc d2bc
00000200: 3d9f 673d aa9d c9bb aefa f73b ab4d 4439
00000210: 7322 8abc fd9f d63c ba43 fbbb a9c8 0abb
00000220: 8cd9 583b 4d7a 7cbc 70db c7bc b78e 5f3c
00000230: 6d4c 083b 500c 063c 07a8 17bc 2d71 fa3c
00000240: 705e 2c3c 22a6 63bc aa11 8c3b 7c39 9cba
00000250: 3e7a 0fbd 1bd7 b33c f6ec 7c3b 6063 a6bb
00000260: a35e 973c acfb 93bc 4cbc 1d3c a762 ef3b
00000270: cf5b 38bc 9556 80bb 811c 073d 8f34 7b3a
00000280: 8364 153c 54b5 b23c 3e22 ffbc e6af 22bc
00000290: b1d5 c63b 55ef 7f3c 7fff 153d 2e98 c23b
000002a0: 99dd a03b a136 353d ed10 e53c 37f8 ccbc
000002b0: c70f 8dbc f2c3 653c c7c1 903c ad1c 51bc
000002c0: a747 b5bc 6a81 013b a54c c93a 41c5 58bc
000002d0: 4e0e 2e3c bc00 a1bc 0d81 6d3c 05e0 b4bc
000002e0: 27ed 7e3b 145a 25bd 33bc c53c 402d d6bc
000002f0: a225 c23c 41bc 83bc f7ec 9c39 eedc a1bc
00000300: ccfb 13bc 2338 463c f754 713b 6414 a13c
00000310: fb82 703a 2e3b 4d3c 9f7e dfbc 2ed3 0abc
00000320: 2e33 7dbc fbd2 a33c 5b0f f8ba 5ffd d0bc
00000330: 3701 153c 7431 adbc 7d09 323c ae5f 6bbc
00000340: 94cd 02bc 71a1 d63c 1ea8 0c3c f770 c2bb
00000350: 9797 0a3d 1bfd b3bb 37ca 9ebb ed98 053b
00000360: e734 823c 2df0 0e3c 65bc 123c a307 ed3c
00000370: d83d f8bc ecba 46bc e0ba bfbc 9543 d1bc
00000380: 4495 d2ba f25b e43b 3f7b 903c de4d b0bb
00000390: 5596 8b3c a1bf 44bc 623c 81bb 7745 bd3c
000003a0: 8e81 863b ff38 b9bb 73c1 9abb 8e73 633c
000003b0: bf5c 5cbc 879e 3eba 8966 0fbc 1e25 bdbc
000003c0: 70d6 63bb cdd6 6fbc b8a5 d439 d905 12bb
000003d0: 046d c53b 08e1 d93b 85e1 4abb 3c10 2fbc
000003e0: f410 7a3c 6a10 b2bc b4fe 23bb 082c 88bc
000003f0: 51eb 883c 2878 923b cbc4 9ebb 5d59 d03b
0.0049181674 0.022534987 0.0064526894 0.042785164 -0.005532599 0.0101999035 -0.021208102 -0.0068436423
0.027114954 -0.013902124 -0.0015078653 -0.0063566053 -0.0159897 0.040007483 0.0024413194 -0.007191522
0.01043658 0.02437774 0.0049462244 -0.004373758 -0.0018149576 0.012850544 -0.004081017 -0.006848883
-0.015540677 -0.0077518835 -0.007473931 0.00056285353 0.03903123 0.029605541 -0.025819952 0.025529014
-0.027651085 -0.010098765 0.02678919 0.014427875 -0.032264 0.007435596 0.004674846 -0.011954742
-0.045883022 0.008136366 -0.027920622 0.023133868 -0.018420057 -0.027954007 0.028808849 -0.014079814
-0.019446386 0.026623547 -0.0017716103 -0.0057438673 0.024420042 0.013647769 -0.002049413 -0.050653793
-0.017080296 -0.020381853 -0.026008107 -0.013802873 0.014221773 -0.012525084 -0.009318888 -0.031099541
0.0023061624 -0.006299135 -0.0069244644 0.013461618 0.0058969553 -0.013665381 -0.00068007817 0.013000069
0.01411766 -0.023790313 -0.020393161 -0.031612612 0.030053835 0.022122731 0.00010544436 0.08166161
0.011659469 0.03193307 -0.006320461 -0.019790338 0.008156304 -0.014620188 -0.021587612 -0.033486716
-0.0069555957 0.0031173124 -0.008377114 0.00024992827 -0.00927626 0.0069487044 0.018808424 -0.0010147574
-0.028525209 0.013910545 -0.01571158 -0.008820595 -0.008588829 -0.02217651 0.016314471 -0.008906037
-0.035257198 0.0051573017 -0.016250124 0.012007253 0.0021666617 0.0019912538 -0.03649992 -0.053072795
0.014365493 0.012998406 0.009202507 -0.005657285 0.01221013 -0.016054114 -0.00019576732 -0.012355356
0.04926501 0.015184182 0.012553659 0.027382206 0.025741318 -0.0028469209 0.0051527084 -0.025739877
0.056548346 -0.006152828 0.007567725 0.0001872095 -0.01686213 0.026199335 -0.0076679857 -0.0021176732
0.0033088652 -0.015410018 -0.024396628 0.013644866 0.0020797506 0.0081816465 -0.009256369 0.030571545
0.0105205625 -0.01389459 0.0042745667 -0.0011918987 -0.03502869 0.021953156 0.0038593388 -0.0050777644
0.018477743 -0.018064342 0.009627413 0.0073054614 -0.011252358 -0.0039165714 0.032986168 0.0009582722
0.009118202 0.02181498 -0.031144258 -0.009929633 0.0060679545 0.015621026 0.036620613 0.0059385514
0.004909229 0.04424155 0.027962172 -0.025020702 -0.017219437 0.014023768 0.017670525 -0.0127631845
-0.022128893 0.0019760975 0.0015357925 -0.013230623 0.010623528 -0.01965367 0.0144961 -0.022079477
0.0038898678 -0.04036911 0.024137592 -0.026144624 0.023699585 -0.016080977 0.0002993119 -0.019758668
-0.009032201 0.012098345 0.0036824325 0.019663043 0.0009174791 0.012526317 -0.027282057 -0.008473201
-0.015454097 0.019998064 -0.0018925475 -0.025511442 0.009094528 -0.021141745 0.01086652 -0.0143660735
-0.007983584 0.026200028 0.008585004 -0.0059338766 0.033835974 -0.005492819 -0.004845883 0.002038534
0.015894366 0.008724255 0.00895605 0.028934306 -0.030302927 -0.012129527 -0.023404539 -0.025544921
-0.0016066213 0.0069689685 0.017636893 -0.0053803762 0.017039457 -0.0120085785 -0.003943966 0.023104412
0.0041047996 -0.0056525464 -0.004722768 0.013882531 -0.013449847 -0.0007271547 -0.008752474 -0.023088988
-0.0034765266 -0.014638615 0.0004055926 -0.0022281318 0.0060249586 0.0066491403 -0.0030957174 -0.010685023
0.015262831 -0.021736342 -0.002502364 -0.016622558 0.01671377 0.00446989 -0.004845237 0.006358309

network_body._body_endoder.seq_layers.0.bias f4 [128]
00000000: 88ec 2bbc 3b37 ed3c f8ec d83b b2d7 33ba
00000010: 8cc4 b0b9 c75a 863c 2890 b73c 6a90 3d3c
00000020: 9854 25bc 4045 69bc d89f 0b3b ee70 843c
00000030: ced1 413c 42a6 773c 7130 9f3b 6c73 5a3c
00000040: 740d b13c e066 a43c 89c8 23bc f0ff 8a3b
00000050: 7aac c1ba 96a8 6ebb 5553 6fbb f758 3bbc
00000060: e160 a5bb ba78 11bb 3063 0cbb 2b1b 08bc
00000070: b6a8 16bc 95ca 8a3a be3c 34bb 22f7 173c
00000080: 4f2c 233c fa55 0ebb d0cc 023c 657d 7cbc
00000090: b9f6 5dbb 5f23 95bb 04de 47bb 6cdf 083b
000000a0: 705f 843b 377d 893c eaa4 38bb 866b a2bb
000000b0: edaa e53c 7523 553c 699c bcba 29f6 0f3d
000000c0: 451f ba3b da5c 803c 26b0 f93b 00e2 8eba
000000d0: 4c69 a3b9 d956 73bb cd7f d13b 622b 6d3b
000000e0: ba3d a93c b0e2 a139 4814 afbb be32 403c
000000f0: 991e 0d3c cc55 013b 00ed 1c3c 83bf e5b8
00000100: 4bfa 823b 1083 4f3b 2f8e f93b 1b6c e9ba
00000110: 7c94 d2bb f723 c43b 151e cc3c c53d da3c
00000120: ed15 21bc 1dd4 8b3c aefc 91bb ab4a 373c
00000130: e0ea 733c da1e e1ba 802d 793c 72e9 ac38
00000140: 4a21 b23b bfe6 02bb 98bb 8cbb c96b fbbc
00000150: c31a bb3c 85f6 c23a 76c4 9a3b 429e 7e3c
00000160: cf2b 813b 6b75 f83a dc8e 1a3c bc0b bf3a
00000170: 8264 20bc b69d 243c 590f 2fbc 6120 7d3b
00000180: f436 8fbb 3101 34bb 5aef 763b f371 bd3b
00000190: f521 61bc 669c 343b 2017 d93b e4c6 5e3c
000001a0: ae1b d339 b4b3 8db9 b4f0 7e3c 5566 713a
000001b0: 3bbf 0e3c bbae e33b c5fd 8a3c 987a f6bb
000001c0: 7de0 d33b 3317 ed3b c2bc 78ba d12d b03c
000001d0: 67d4 c73b 6998 8dbb 5e46 373c e11f b73b
000001e0: 45b0 e43c 12a0 eabb 0ca3 92bc 2b4e 563c
000001f0: 4508 9db9 a626 debb 6b2e b8bc bd37 e6bb
-0.010493405 0.028957 0.0066200458 -0.0006860449 -0.00033715775 0.016400708 0.022407606 0.0115700755
-0.0100909695 -0.014237702 0.002130499 0.01616713 0.0118298065 0.015115323 0.0048580696 0.013333183
0.02161286 0.020068586 -0.009996542 0.004241936 -0.0014776133 -0.0036416403 -0.0036518176 -0.011434785
-0.0050469493 -0.0022197203 -0.0021421425 -0.008307259 -0.009195497 0.0010588939 -0.0027502025 0.00927523
0.009959294 -0.0021718726 0.007983401 -0.015410756 -0.0033868982 -0.0045513357 -0.0030497322 0.0020885123
0.0040396973 0.01678334 -0.0028174468 -0.0049566654 0.028035605 0.013008942 -0.0014389876 0.035146866
0.005679997 0.015669275 0.0076198755 -0.0010901093 -0.00031168235 -0.0037130623 0.006393409 0.0036189188
0.020659316 0.00030877208 -0.005342994 0.011730848 0.008613252 0.0019734977 0.00957799 -0.00010955243
0.0039971224 0.0031663813 0.0076158266 -0.0017808707 -0.006426392 0.0059857327 0.024916688 0.026640782
-0.009831888 0.017068917 -0.0044551706 0.011187236 0.0148875415 -0.0017175332 0.015208602 8.245082e-05
0.0054360973 -0.0019973961 -0.004294824 -0.030691044 0.02283991 0.0014874494 0.004723127 0.015540661
0.00394199 0.0018955892 0.009433474 0.0014575641 -0.009789588 0.010047367 -0.0106848115 0.0038624036
-0.0043705646 -0.002746653 0.0037679286 0.005781406 -0.013741006 0.002755904 0.006625071 0.013597224
0.0004026568 -0.00027027505 0.015560318 0.0009208669 0.008712585 0.0069483197 0.01696671 -0.0075219385
0.00646597 0.0072354316 -0.00094885763 0.021506222 0.0060983184 -0.004321147 0.01118621 0.005588517
0.027916083 -0.007160195 -0.017900012 0.01308016 -0.00029951535 -0.0067795096 -0.022483071 -0.0070256875

network_body._body_endoder.seq_layers.0.weight f4 [128, 158]
00000000: 0742 cabd c8f2 adbc c780 13bd 56a3 bdbc
00000010: d37f 97bd 8801 d2bb 9358 423e 1cce 3b3e
00000020: 8817 9abd cbd0 653e 5d49 163e a851 013d
00000030: 2e80 18be 8843 df3d 2957 21bb 945d c73c
00000040: 58a8 02bd ab33 853d 5f7a a5bd 818f cebd
00000050: 820d 5bbd 650d 4f3d 09c6 01bc 65f1 fa3d
00000060: 588f 4abd 27c4 a2bc 45d5 3cbe ac42 993c
00000070: 4c7b 20bd 3366 113d 547f bdbd f37d 763d
00000080: 17b8 d13c 0a69 453e f08c 813d 22e7 183d
00000090: af9d 173d 6403 2c3d c4f0 02bd 451e 27bd
000000a0: ee9b 0bbe afc4 0c3d f69c aabd 48ad 273e
000000b0: 5c92 a23d 6bde 2aba 2811 d23d 005b 8fbd
000000c0: 78d2 bf3d 77c2 37bd 5ae9 52bd 8387 473e
000000d0: b4ed 063c 8790 8ebd f9af b1bd 43ff d53b
000000e0: 68c8 2e3e 5f71 cbbc db88 86bd 6ec8 6d3d
000000f0: 3f21 f3bd 91f5 8b3d baeb 09bd b780 22bc
00000100: ae5d 1f3d e055 28bb 661a 01be c9eb d13d
00000110: 48b2 77bd f106 ae3d 21ee 983c c12d dbbd
00000120: bd54 f5bd 0114 d43d bf07 a73c 210c 2a3d
00000130: 73f5 03bb 6794 94bd 53f8 20bd 4b48 f13b
00000140: ebd4 883d ec68 70bd b933 8d3c 7554 1c3e
00000150: d0a7 223e fa9a eabb 168e ff3d 8c72 1a3e
00000160: b406 36bd edb0 8f3c 661c ef3c 1c5c c7bc
00000170: d1ad e83c c0c7 ac3c e83d 6e3d e771 7b3c
00000180: db78 8fbc 8a2c 04be 8317 2cbc 4330 53bd
00000190: 3ed5 883d 5d11 393d a006 e83d 6687 d3ba
000001a0: 4af9 88bc b393 bdbc ceed 2d3d 0a73 6abe
000001b0: a131 523d ad2f d0bc 6e3d ae3c 1deb f43c
000001c0: 5d1f 10bd e9f8 f7bc 06fe 48bb 0a47 5bbd
000001d0: a187 e3bd 825f 973d 5c03 003d 95b2 d7bc
000001e0: e6d5 7bbd ae1a 46bc eeee 273e 150b 37be
000001f0: 2b48 5c3d a118 8bbc d86b fcbd e216 b1bc
00000200: 01b7 b63c 2584 f9bd 1c7b 323d 9c9d 94bd
00000210: 025a 1e3d 5833 4e3d 3c8a 653d 24fb 683c
00000220: f431 a1bd d749 043c 9123 9b3d e7b5 1bbe
00000230: 8c1b 56bd 013e f43d 4d54 4e3b 993f 113c
00000240: 10a5 aa3d 4339 0b3e d10f b1bd 13c6 e9bc
00000250: 60e3 2abd 6aa8 193d 4569 2dbe 1fdf 51bc
00000260: fa16 3ebd 78b7 6e3c 052f a2bc f2d6 323d
00000270: f14d 45bd 83e9 d0bd e21d 9b3d 7f27 dd3d
00000280: f44d 6d3e a26f 38bd f48d d73d 8f4d dc3c
00000290: de54 0a3e 5f42 823d 69a7 ea3d 0df6 dfbd
000002a0: 188f 843d 32fd 37be eae7 993d d625 d0bc
000002b0: 230e 1c3e 177f 1bbe 127a 03bd a038 243d
000002c0: ce1b 4dbd 0482 bebc 4b83 f23d 7372 1dbe
000002d0: 5db3 423d dd41 a2bb 072a d7bd 1e6a 2abd
000002e0: 8c51 31be d48e 9db9 bade 35bd b9a4 38be
000002f0: 0085 5c3c bf31 b7bd 3c97 39bd a7e1 f9bd
00000300: d956 5c3d 330a febd e545 eb3d 7a6b 593c
00000310: e256 2e3d 98e9 8fba 6dda 223d 1ccf bb3d
00000320: 06d9 043d a292 cb3c 5cba dd3d fd3e 3d3d
00000330: b37c 873d e608 19be 8f5c d73d adc7 453d
00000340: 7f73 2cbc c5b8 8c3d 64a5 203d 7d1f 533e
00000350: 9f2c f2bb ba9a b6bd ba97 213d 2920 aebd
00000360: b23c 5ebb 17d8 9d3c 26ef f8bd 09cc f5bd
00000370: e749 a0bd b5a3 753e 379b 34bd ea5f 5d3b
00000380: a6b1 3e3d 8b5d 2ebd ac45 a03d 99c6 343c
00000390: 85c3 8cbd d4a7 d3bc e268 1f3e 95d6 71bd
000003a0: 3126 38bd b104 b73d 7c3e e73c 9f00 aebd
000003b0: 65bc 433c 7c80 6dbd 738a bdbd fea3 7f3d
000003c0: 8eb6 2d3e 0bba 8b3c d1f9 853d 7137 2a3d
000003d0: 6dde 8cbd b9c2 b9bd ecc0 02be ceec 113d
000003e0: c59a 9e3d fef0 6abc 5e0d aebd 04a8 31bd
000003f0: 8138 9fbd 2ba2 3d3a aec1 0a3d 31e3 ebbb
-0.09875875 -0.021233931 -0.036011484 -0.023149174 -0.073974274 -0.006408874 0.18979101 0.18340343
-0.075240195 0.2244293 0.14676423 0.031572014 -0.14892647 0.109015524 -0.0024618602 0.024336614
-0.031898826 0.065039955 -0.08079981 -0.10085965 -0.05347968 0.050549883 -0.00792075 0.122530736
-0.04945311 -0.019868923 -0.18440731 0.01870855 -0.039180085 0.035497855 -0.092528015 0.06017871
0.025600476 0.1927835 0.0632571 0.0373298 0.037015613 0.04199542 -0.031967893 -0.04080035
-0.13633701 0.03436726 -0.08330719 0.16374695 0.07938072 -0.0006518128 0.102571785 -0.06999779
0.093663156 -0.04486319 -0.051492073 0.19485287 0.008235384 -0.0696116 -0.08676142 0.0065306737
0.17068636 -0.024834333 -0.06569072 0.058052473 -0.118715756 0.068339474 -0.033672072 -0.009918383
0.0389077 -0.002568595 -0.12607726 0.102500506 -0.060472757 0.08497418 0.018668236 -0.10702086
-0.11979053 0.10355378 0.020389436 0.041515473 -0.0020135313 -0.07254868 -0.03929932 0.0073633543
0.06681236 -0.05869381 0.017236577 0.15266593 0.15884328 -0.007159588 0.124782726 0.15082759
-0.044439986 0.01754042 0.029188346 -0.024335913 0.028403195 0.021091342 0.058164507 0.015346981
-0.017513683 -0.12907615 -0.0105036525 -0.051559698 0.06681298 0.045182575 0.113293886 -0.0016138374
-0.016720433 -0.023141718 0.042463116 -0.22895446 0.05131686 -0.025413359 0.021269526 0.029897267
-0.03518616 -0.030270057 -0.0030668988 -0.053534545 -0.111098535 0.073912635 0.031253204 -0.026330272
-0.061483286 -0.012091322 0.16399738 -0.17875321 0.053779762 -0.016979517 -0.12325257 -0.021617357
0.02230406 -0.12183408 0.043574437 -0.07256624 0.038660057 0.050341934 0.056040034 0.014220033
-0.07870856 0.008074245 0.07575143 -0.15206109 -0.052272364 0.11925889 0.0031483353 0.0088652605
0.083322644 0.13596062 -0.08645595 -0.028536832 -0.041720748 0.037514128 -0.16934688 -0.012809544
-0.04640863 0.01457011 -0.019797811 0.04366202 -0.048170034 -0.10200789 0.07574059 0.10798549
0.23174268 -0.045028336 0.10525122 0.026892452 0.13508937 0.063603155 0.11457712 -0.10935602
0.064726055 -0.1796768 0.07514937 -0.025408667 0.15239768 -0.151852 -0.032098837 0.040093064
-0.050075345 -0.023255356 0.118414484 -0.1537569 0.047534335 -0.004951699 -0.10506063 -0.041605107
-0.17316264 -0.0003005179 -0.04440186 -0.18031587 0.013459444 -0.08945035 -0.045310244 -0.12201243
0.053793762 -0.12404289 0.11487941 0.013270253 0.042563327 -0.001097965 0.03975909 0.09170362
0.032433532 0.024850193 0.10826561 0.04620265 0.06615581 -0.149448 0.10515701 0.04828613
-0.010525583 0.068711795 0.03922023 0.2061748 -0.007390573 -0.089162305 0.03945134 -0.08502228
-0.003391069 0.019268079 -0.12154989 -0.12001807 -0.07826596 0.2398823 -0.044093337 0.0033779093
0.046556138 -0.04256968 0.07825789 0.0110336775 -0.0687323 -0.025836863 0.15567353 -0.059042532
-0.044958297 0.08936442 0.028228037 -0.08496212 0.011946772 -0.05798386 -0.09254923 0.062412255
0.1696417 0.017056486 0.06541789 0.04155678 -0.06878362 -0.090703435 -0.12768906 0.035626225
0.07744364 -0.014339684 -0.08498643 -0.043373123 -0.07774449 0.0007233943 0.033876114 -0.007198714

network_body._body_endoder.seq_layers.2.bias f4 [128]
00000000: 34d5 6d3c cde3 993c 224a 5cbc 1df8 613c
00000010: fa56 3dbc 7101 1ebb adef a0bb 6296 20bc
00000020: 10b0 743b c3bd c03c f67e b23b 264c 54ba
00000030: 819e abbb efb1 18bb 8f27 2cbb ff39 88bc
00000040: 65eb a5bb 6d9a 393c f29c 42ba 2247 c23b
00000050: 6ce5 613b 7bb9 453b 5440 b4bb 7e85 26bc
00000060: b153 7f3c e243 8fbc 69a6 f0bb 89ff adba
00000070: 07bd 553b cbd9 3ebb de93 213c 0498 6abb
00000080: 203c 3fbc cb31 87bc 8eff 6fbb 19ac 75bb
00000090: 58a9 92bc 2079 323c 5a54 1dbc d308 d13c
000000a0: 21d4 fabb e352 16bc 0097 9f3c a0fa 9d3b
000000b0: fea3 35ba fd6f 4f3c 08c3 de3c 69de 42bb
000000c0: ba39 cb3b 5ec7 db3b d301 16bb b11b b93a
000000d0: dd77 fcbb 3396 0c3c 4dc0 063c b76a 6b3b
000000e0: dba5 d7bb 00cd 0dbc a035 dcbb 0539 143c
000000f0: 532f 763c 2828 1b3b 2daa e4ba 39a4 143b
00000100: 504f 4fbc 6ce1 41bc bb1c 983b 2b93 a43c
00000110: fa49 8d3b 76e2 7fbc 302b 243c bb97 853a
00000120: 8b7a 9a3c 7f56 cfbb e995 3c3a d614 77bc
00000130: d3dd 88bb 511f d03b 0e70 323c d8ab 833c
00000140: 1feb 3e3c 9556 40ba e787 e539 1bda 16bb
00000150: 862a 473c 908f 513c 9876 093b fedc cfbb
00000160: 90c9 36bc 6373 41bc 1416 ccbb 6619 5937
00000170: ca02 1b3c fb8a 2e3b a679 2f3c 879b 1cba
00000180: e7dc 29bc 5038 f33b 2ba9 6c3c ad2d 7c3b
00000190: 5042 443c aa42 863b 66c2 c13b a29c c23a
000001a0: b6cb b4bb 455a 9a3b 9ae6 80bc ca37 983a
000001b0: a3da 40bb 43e2 8d3b a7bc bdbb f8bb 24bc
000001c0: 7ecb 913c 5a6d 69bc e64c 143d aa4f d5bb
000001d0: 137e 6abb 32c2 39bb ed83 4a3b bb02 a73b
000001e0: 3aa5 423c e82b 91bb e81c 1f3c 99e3 ac3c
000001f0: 3f8b 49bc f5cb 83bb 4bc5 8bbb ccce 913c
0.014516164 0.018785382 -0.013445409 0.013792065 -0.011556381 -0.0024109746 -0.004911384 -0.009801479
0.0037336387 0.023527985 0.005447264 -0.0008098505 -0.005237401 -0.0023299416 -0.0026268696 -0.016629217
-0.0050634616 0.011328322 -0.00074238994 0.00592889 0.0034469021 0.003017037 -0.0055008326 -0.010163663
0.015583918 -0.017488424 -0.0073440564 -0.0013275008 0.003261389 -0.0029121514 0.009861914 -0.0035796175
-0.01167205 -0.016503235 -0.0036620828 -0.0037486611 -0.017903015 0.010893136 -0.0096026305 0.025516903
-0.0076546823 -0.009175035 0.019481182 0.0048211366 -0.0006929039 0.012660977 0.027192608 -0.0029734618
0.00620195 0.006707116 -0.002288927 0.0014122633 -0.0077047185 0.008580732 0.008224559 0.0035921761
-0.006581051 -0.008654833 -0.00672026 0.009046798 0.015025931 0.0023675058 -0.0017445736 0.0022680892
-0.012653187 -0.01183353 0.004642097 0.020089706 0.004311797 -0.015617957 0.010020062 0.0010192314
0.018857261 -0.00632745 0.0007193969 -0.015080651 -0.004176834 0.0063513895 0.010890974 0.016073152
0.011652737 -0.00073371205 0.0004377954 -0.0023018185 0.0121561345 0.012790576 0.0020975228 -0.006343483
-0.011156455 -0.0118072955 -0.006228218 1.2940121e-05 0.009461114 0.0026633132 0.010710156 -0.0005974103
-0.010367609 0.0074224845 0.01444463 0.0038479373 0.011978701 0.0040973024 0.0059130667 0.0014847706
-0.0055174483 0.004710468 -0.01573496 0.0011613306 -0.0029427193 0.004329951 -0.0057903114 -0.010054581
0.017797228 -0.014247263 0.03620615 -0.006509741 -0.0035780712 -0.002834451 0.0030901388 0.005096761
0.011880213 -0.004430283 0.009711482 0.02110462 -0.012301265 -0.0040221163 -0.0042654625 0.017798804

network_body._body_endoder.seq_layers.2.weight f4 [128, 128]
00000000: 8cf0 e9ba 24e9 943d d548 f63d 3cda 7dbd
00000010: 9b97 4bbe e936 5bbd 1d15 ac3d 3aae d43d
00000020: 38e2 87bd 87a0 fbbd 0b7b 44be cef9 c53d
00000030: 8df7 3e3d e874 513d 3f9e d93d 24e1 43be
00000040: c017 a73d e630 953d d10f b93d cad2 86bd
00000050: 505c 163e 2aaf 113e 660b 1bbd 91c5 773c
00000060: 92c8 093e 1a98 14be 6f6c 233d 3786 843c
00000070: 3ffa 163d 8698 33be 3a4e afbd 2975 a03d
00000080: ce02 423b cbac 00bd 6087 233d a118 1bbd
00000090: f1d8 173d 52be 3b3d 3dea c53d 513e 61bd
000000a0: d8e7 bc3d 1dfa e63d 0897 87bd 9454 eebd
000000b0: 3592 033e f548 22ba 0345 d1bd c1d5 7cbd
000000c0: b6ed 86bd 66bf 013c 74e0 efbc 2ada 69bd
000000d0: f88b 6c3d 0856 33bd 6dee 81bc b958 0ebd
000000e0: eb74 4f3d 3796 fe3d b246 d53d 42f5 85bd
000000f0: 24a8 9dbd c198 fdba b3a9 12bc deeb 96bd
00000100: 9147 56bd f6d9 62bd f402 15bd 1dd8 103d
00000110: 9d50 a6bd 8c87 45bd 0e35 aabb ee86 33be
00000120: 4858 89ba ad2c 9fbb d9ba 813d 8648 1abe
00000130: 9ba2 9ebc 422f c13d 5262 c1bd 8966 e2bc
00000140: 224f 1bbe f4ea 023e b8fa 663c b9b1 b83d
00000150: 8cbb b7bd a812 9dbd 9d68 d3bc f22d c4bc
00000160: 6481 a93b 0309 1b3e 3a39 97bc 87f6 fdbd
00000170: c52e 2dbd 6784 b3bb 8918 80bc b248 4abd
00000180: 633a bb3d d2fb 863d c94e dabd 4d6b 553d
00000190: 8262 263e 3ee7 dc3d 60ea 013c 0fba 9bbd
000001a0: 945f 68be 52ee 903c 5546 9abc ef69 a43d
000001b0: 2f5e f4bc 482b e9bd 35dd 103e c1f4 643c
000001c0: bcd0 bf3c 5b08 413e 3695 983c 6614 b2bd
000001d0: 13da 67bd b4be 00bd 3201 ca3c 6421 113d
000001e0: 1242 843d caa1 4e3d bfcf 8bbd d736 bebd
000001f0: 1d73 043d 4178 14be 72b8 983c 8217 a83d
00000200: 2fde aabd a121 0d3e ff88 33bd d076 84bd
00000210: 8285 54bb dce3 e3bc 340e a93a 4fb7 b63d
00000220: 43fc 88bd 9c17 6dbe de40 b33d 5506 963d
00000230: 1a33 2abe dda6 313e 4776 4fbe 4e34 883d
00000240: 8b43 3fbe cbd6 ed3d 9eeb 8c3d cc94 f6bb
00000250: 973d b73d 1bbb a63d 1eb0 8dbd 100c 7aba
00000260: 4bd7 38bd a1e3 c63d 5208 283d 1014 9dbb
00000270: f630 37bb 8094 203d 3282 fdbd 29b4 f0bc
00000280: 8699 66bd d1ec 983d 73fd 86bd 45bd cebd
00000290: a0a3 693c bb4c 023e 1f8b e9bc 04d8 2f3e
000002a0: 8392 133d 471e a6bd 8a50 d13d b9d9 d2bd
000002b0: 4cd3 cc3c 4259 cebd d041 6f3d a7bd 28bd
000002c0: deda 7d3d 2ea3 09bc d942 093e e02b 87bc
000002d0: 90d9 1b3d e977 4abd f09f 7cbd b9e7 c13d
000002e0: 28e8 a63d 80fb 18bd a56b e73c 50df 533d
000002f0: af1b 143c 8886 5e3d 108a eebd 0c68 203b
00000300: fe44 58bd a679 9dbd 3843 24bd 862d 213e
00000310: 026f c8bd 9e0b 063e db97 b83d 61ac a43b
00000320: ee00 86bd 81f2 403d 1976 bd3d 7067 3bbd
00000330: 7c66 623d c9aa 6ebe d974 2e3e 6971 293c
00000340: 67f1 3ebd c390 11be af68 1fbd df7f febd
00000350: 3d1d 41bc ba09 423d c71d 893d 2c1c a93d
00000360: 45e1 123d ae34 48bd 82fe a7bd 7ada ab3b
00000370: 87ec 9cbc 71d1 a53d d7ab 0fbe 2a7f 8e3c
00000380: 01b1 613e 70e5 e43d bce1 4ebd 4d2a 043e
00000390: b419 cb3d 896c 7cbd d4d2 01be f4c6 643e
000003a0: 848f d1bc e79a 2b3c 9c9b 173d 9f41 f33d
000003b0: ad63 b93d e424 713e 6eef 3c3d dcae 9fbd
000003c0: ecb6 243d 0cec 3bbd 8a93 1ebe 10b5 923d
000003d0: a7e6 b8bd 2817 39be 0580 80be f219 263d
000003e0: ce7e 24be fbdc 2dbd 79eb 8b3d a711 06bd
000003f0: 4999 243d a896 37bc 7596 a8bb 6cf2 203e
-0.0017848178 0.072710305 0.1202561 -0.061975703 -0.19882052 -0.053519163 0.084024645 0.103847936
-0.06634945 -0.122864775 -0.19187562 0.09666787 0.0466228 0.05113688 0.10625886 -0.19128853
0.08158827 0.07284717 0.0903622 -0.065831736 0.14683652 0.14226976 -0.037852667 0.015122787
0.13455418 -0.14511147 0.039898332 0.01617728 0.036859747 -0.17538652 -0.085598424 0.078348465
0.0029603723 -0.03141479 0.039924026 -0.037865285 0.037072126 0.0458358 0.09663818 -0.05499107
0.09223908 0.11278174 -0.06620604 -0.11637226 0.12848742 -0.0006190681 -0.10218241 -0.06172729
-0.065883085 0.007919168 -0.029281832 -0.057092823 0.057750672 -0.043783218 -0.01586076 -0.03475258
0.05064861 0.12430995 0.10413875 -0.0654092 -0.07698086 -0.0019347892 -0.008951592 -0.07369207
-0.052314345 -0.055383645 -0.03637977 0.03536235 -0.081208445 -0.04822497 -0.005194313 -0.1753194
-0.001047858 -0.0048576207 0.063344665 -0.15066728 -0.019364646 0.09432842 -0.09442581 -0.027636783
-0.15166906 0.1278494 0.014097862 0.09018273 -0.089713186 -0.07669574 -0.02580672 -0.02394769
0.0051728953 0.15140156 -0.018459905 -0.12400537 -0.04228093 -0.00547843 -0.0156367 -0.049385734
0.09141996 0.06591 -0.10659558 0.052104283 0.16248515 0.107862934 0.0079294145 -0.07603847
-0.2269271 0.017691765 -0.018832365 0.08028018 -0.029830066 -0.11385208 0.14146884 0.0139743695
0.023414962 0.18850844 0.018625837 -0.08695297 -0.056604456 -0.03143187 0.024658773 0.035432234
0.064579144 0.050447263 -0.06826734 -0.092878036 0.032336343 -0.14498998 0.018642638 0.08207609
-0.083431594 0.1378236 -0.04383182 -0.06467974 -0.003242821 -0.027818613 0.001289791 0.08921682
-0.0668874 -0.23153538 0.08752607 0.073254265 -0.16621056 0.1734881 -0.20259963 0.06650601
-0.1867811 0.11613234 0.06880878 -0.007525062 0.08947294 0.08141156 -0.06918357 -0.00095385406
-0.045127194 0.097113855 0.04102356 -0.0047936514 -0.0027952767 0.03920412 -0.123783484 -0.029382782
-0.056298755 0.07467044 -0.0659131 -0.10094694 0.014260203 0.12724583 -0.02850872 0.17172247
0.036028396 -0.08111244 0.1022044 -0.102954336 0.025003098 -0.10075618 0.058412373 -0.04119649
0.061976306 -0.0084007215 0.13404407 -0.016500413 0.03804928 -0.04943076 -0.061675966 0.09468026
0.08149749 -0.037349224 0.028249571 0.05172664 0.009039803 0.054327518 -0.11647427 0.002447608
-0.05280017 -0.07689218 -0.040103167 0.15740022 -0.09786798 0.13090369 0.09013339 0.005025432
-0.06543146 0.04710627 0.09251041 -0.045752943 0.055273518 -0.23307337 0.17036761 0.0103419805
-0.046616938 -0.14215378 -0.038918193 -0.12426733 -0.011786756 0.047372557 0.06695133 0.082573265
0.035859365 -0.048878364 -0.082028404 0.0052445503 -0.019155754 0.080965884 -0.14030395 0.01739462
0.22040178 0.11176574 -0.050508246 0.12906761 0.09917012 -0.061626945 -0.12678081 0.2234152
-0.025581129 0.010473943 0.037013635 0.118777506 0.09052215 0.23549229 0.046126775 -0.07797024
0.04021351 -0.04587941 -0.15485969 0.07163441 -0.090283684 -0.1807524 -0.2509767 0.040552087
-0.16063997 -0.04244707 0.06832022 -0.03273168 0.040185247 -0.011205353 -0.005144889 0.15717477
